nohup: ignoring input
KGMTL(
  (ent_embeddings): Embedding(47998, 128)
  (rel_embeddings): Embedding(280, 128, padding_idx=0)
  (att_embeddings): Embedding(86, 128, padding_idx=0)
  (Mh): Linear(in_features=128, out_features=100, bias=False)
  (Mr): Linear(in_features=128, out_features=100, bias=False)
  (Mt): Linear(in_features=128, out_features=100, bias=False)
  (hidden_struct_net_fc): Linear(in_features=100, out_features=1, bias=True)
  (ah): Linear(in_features=128, out_features=100, bias=False)
  (at): Linear(in_features=128, out_features=100, bias=False)
  (hidden_attr_net_fc): Linear(in_features=200, out_features=1, bias=True)
  (dropout): Dropout(p=0.5, inplace=False)
  (tanh): Tanh()
  (relu): ReLU()
  (loss_fn): BCEWithLogitsLoss()
  (criterion): MSELoss()
)
train att set: 237046
valid att set: 29631
train rel set: 444756
val rel set: 57200
X_train_head_attr: 218757
X_val_head_attr: 19978
epoch 0, SUM Training loss 0.8146407147175383
epoch 0, training AST loss 1.7875732630491257
…
